cache_dir/models--bert-base-uncased/snapshots/1dbc166cf8765166998eff31ade2eb64c8a40076/model.safetensors (safetensors, 262144 bytes, 3 tensors)

bert.embeddings.LayerNorm.beta f4 [768]
0	0xbcd44b14	-0.025914706
1	0xbca02a0c	-0.0195513
2	0x3cc691d3	0.024239456
3	0x3db65db6	0.08904593
4	0xbd80a2d7	-0.06281059
5	0xbc593aaa	-0.0132586155
6	0x3c5b0403	0.013367656
7	0xbc4e73f7	-0.01260089
8	0x3b912061	0.0044289087
9	0x3d10c5c3	0.03534485
10	0xbd439a35	-0.047754485
11	0xbc62eb92	-0.01385011
12	0x3ba2ffd8	0.0049743466
13	0xbdd3e2fa	-0.10346027
14	0xbd9b10a6	-0.07571535
15	0x3cdba3d6	0.026811522
16	0xbca90a88	-0.020634905
17	0xbd32fac0	-0.043696165
18	0xbd66f9f6	-0.056390725
19	0xbdb15344	-0.0865846
20	0xbc0a0ed1	-0.008426384
21	0xbd183ce4	-0.037167445
22	0xbd308938	-0.043099612
23	0xbcc004c3	-0.02343977
24	0x3ca4a09a	0.020096112
25	0xbbdff57e	-0.006834685
26	0xbd7d193a	-0.061791636
27	0xbd4140a9	-0.047180805
28	0x3b67fbc0	0.0035397857
29	0xbbba2e91	-0.0056818207
30	0xbd24f509	-0.040272746
31	0xbdd5e743	-0.104445
32	0xbcfccf63	-0.030860608
33	0xbd4206be	-0.04736971
34	0xbd5275fd	-0.051382054
35	0x3d571338	0.052508563
36	0xbbc519a1	-0.006015018
37	0xbd812e22	-0.06307627
38	0xbd05a916	-0.032631956
39	0xbc28aa24	-0.010294471
40	0xbcd616d3	-0.02613393
41	0x3d0712a9	0.03297678
42	0x3cc0c69b	0.023532202
43	0xbd1af7f7	-0.037834134
44	0xbd91fad2	-0.07127918
45	0x3c9a0376	0.018800478
46	0xbd44ea2b	-0.048074882
47	0xbcd22b8e	-0.025655534
48	0xbdd7cf67	-0.10537606
49	0x3b923529	0.0044619036
50	0xbceaf88b	-0.028682968
51	0xbd72a19d	-0.059236158
52	0x3c49f1ca	0.012325713
53	0x3e007f9a	0.12548676
54	0xbd691a92	-0.056910105
55	0xbd9af0ed	-0.07565484
56	0xbd211b75	-0.039332826
57	0x3be4ea12	0.006985911
58	0xbd838260	-0.064213514
59	0xbd4020b5	-0.04690619
60	0xbcad21ea	-0.021134336
61	0xbd246ddb	-0.04014383
62	0xbd9e9b3a	-0.07744451
63	0xbd50fd7f	-0.051023003
64	0x3cf5036f	0.029908864
65	0x3cda49ed	0.026646579
66	0xbd28952e	-0.041157894
67	0xbdbcfc44	-0.09227803
68	0xbd363dd3	-0.044492554
69	0xbc9e509f	-0.019325553
70	0xbd6bdacf	-0.05758172
71	0xbb4f8957	-0.0031667554
72	0x3b6362bf	0.0034696308
73	0xbc879d26	-0.016554426
74	0x3cc0babf	0.023526547
75	0xbd44c3cf	-0.0480383
76	0x3c203b0d	0.009779704
77	0xbdd5d814	-0.10441604
78	0xbd46659a	-0.04843674
79	0x3befda15	0.0073196986
80	0xbca1a96e	-0.01973411
81	0xbd2c5130	-0.042069614
82	0xbd98cbe3	-0.07460763
83	0xba5fd895	-0.0008539048
84	0xbd4e7409	-0.05040363
85	0xbd752b6d	-0.059855867
86	0xbd2b99bc	-0.04189466
87	0xbc78a714	-0.015176553
88	0xbd8584d9	-0.06519479
89	0x3c64b074	0.013958085
90	0xbd593847	-0.053032186
91	0xbcdae254	-0.02671925
92	0xbdb5c934	-0.08876267
93	0xbdbff8db	-0.09373637
94	0xbc0190ba	-0.007908041
95	0xbbeda0d2	-0.0072518373
96	0xbbddc1a0	-0.0067674667
97	0x3c4356f7	0.0119225895
98	0xba8ca01e	-0.0010728871
99	0x3d4d2af3	0.050089788
100	0xbc6e4a7b	-0.014544125
101	0x3c20a30e	0.0098045
102	0xbcdebaa7	-0.027188612
103	0xbc14398a	-0.0090469215
104	0xbcd68a2d	-0.026188934
105	0xbd51f60e	-0.051260047
106	0x3bcb65b2	0.0062071914
107	0xbb968cf2	-0.0045944387
108	0xbd2da864	-0.042396918
109	0xbdb1c3ef	-0.086799495
110	0x3dd67f07	0.10473447
111	0xbd36e38a	-0.044650592
112	0xba9e92fb	-0.0012098247
113	0x3d484df1	0.048902456
114	0xbd87d104	-0.066316634
115	0xbd870754	-0.065931946
116	0xbd80c1b2	-0.062869444
117	0xbb95fbaf	-0.004577122
118	0xbc4b4e7f	-0.012408852
119	0xbd0c9b40	-0.034327745
120	0xbcfed6df	-0.031108318
121	0x3f1d75b0	0.615077
122	0xbd6a6d22	-0.057232983
123	0xbd017f85	-0.031615753
124	0x3d163bc2	0.036678083
125	0xbc4a1101	-0.012333156
126	0xbd2afb15	-0.041743357
127	0x3d9cecdf	0.07662367
128	0xbd442c22	-0.04789365
129	0x3baa5a6c	0.0051987674
130	0xbd003892	-0.03130395
131	0xba9e9e14	-0.0012101554
132	0x3cb956c9	0.02262439
133	0xbdb38766	-0.087660596
134	0x3cbd48bc	0.023105972
135	0xbc07627f	-0.008263229
136	0xbb82ec13	-0.0039954274
137	0xbcdab293	-0.026696479
138	0xbce0837d	-0.027406448
139	0x3e04e5f5	0.12978347
140	0xbadbab1a	-0.0016759366
141	0xbd55a87e	-0.05216264
142	0xbd3632a3	-0.044481885
143	0xbc3b1798	-0.011419199
144	0xbd9cb6fd	-0.0765209
145	0x3f219da4	0.63131166
146	0xbce55402	-0.02799416
147	0x3c98b764	0.018642135
148	0x3c6c3c7a	0.014418716
149	0x3c383403	0.011242869
150	0xbc8112b0	-0.015755981
151	0xbb5708ab	-0.0032811563
152	0x3da09a1f	0.07841896
153	0xbcae9dfa	-0.021315563
154	0xbc914062	-0.017730895
155	0xbc8c1cc3	-0.017103558
156	0xbcaf6574	-0.021410681
157	0x3b0d6b62	0.0021578898
158	0x3bf75d9c	0.007549001
159	0xbe34e1d7	-0.17664276
160	0xba280e7a	-0.00064108486
161	0xbd47e17b	-0.04879902
162	0xbc30bb25	-0.010786806
163	0x3ca67756	0.020320576
164	0xbce1480f	-0.02750018
165	0xbc7835fe	-0.0151495915
166	0xbcd05ab9	-0.025433885
167	0xbddc0dc0	-0.1074481
168	0x3e401eb8	0.18761718
169	0x3cde530c	0.02713921
170	0xbd6ae14c	-0.057343766
171	0xbd69fc41	-0.057125334
172	0xbd9dc6f4	-0.07703963
173	0xba32eba6	-0.00068252755
174	0xbced448c	-0.02896335
175	0xbf0e36dc	-0.5555246
176	0xbd95a1e7	-0.07306271
177	0xbce708cf	-0.028202442
178	0xbdbc2db5	-0.091884054
179	0xbd617f8a	-0.05505327
180	0xbc2358de	-0.009969918
181	0xbcc0c1f6	-0.023529988
182	0x3cb6fd8b	0.022337696
183	0x3c4134de	0.01179239
184	0xbd216482	-0.039402492
185	0xbd2ef924	-0.042718068
186	0xbd90458f	-0.07044517
187	0xbdac6d9a	-0.08419342
188	0xbc82151e	-0.01587921
189	0xbd1e500a	-0.03865055
190	0xbc1d8874	-0.0096150525
191	0x3cc0ce19	0.023535775
192	0xbce4d3b7	-0.027932985
193	0x3d4a3824	0.049369946
194	0xbb541350	-0.0032360144
195	0x3b93250a	0.0044904994
196	0xbc6b1fe4	-0.014350865
197	0xbd427b75	-0.04748102
198	0x3d66e693	0.056372236
199	0x3cd4b6dc	0.0259661
200	0xbcb8d584	-0.02256275
201	0xbe023ab7	-0.1271771
202	0xbd2cef2a	-0.042220272
203	0xbc8ba32e	-0.017045584
204	0x3d09690a	0.03354744
205	0xbd8816d3	-0.066449784
206	0xbd516960	-0.051125884
207	0xbc533c0e	-0.012892736
208	0x3d3b2f80	0.045699596
209	0xbd504329	-0.0508453
210	0xbb86907f	-0.0041065807
211	0x3c374be1	0.011187525
212	0xbdba7d22	-0.091058984
213	0xbd013ab1	-0.031550113
214	0xbd0a0204	-0.03369333
215	0xbda7a436	-0.081856176
216	0xbdb207c4	-0.086928874
217	0xbd4c556f	-0.049886163
218	0xbd1a0d94	-0.037610605
219	0xbd990b01	-0.07472802
220	0xbda944a7	-0.082650475
221	0xbadb5d75	-0.0016736226
222	0xbd22c7c0	-0.039741278
223	0xbd256a46	-0.040384553
224	0x3cd4ae21	0.025961937
225	0xbde349dc	-0.11098072
226	0xbd5e6541	-0.054295782
227	0xbba7e089	-0.005123202
228	0xbd47575c	-0.048667297
229	0x3d0968d6	0.033547245
230	0xbc021147	-0.00793869
231	0x3c913380	0.017724752
232	0x3d282fe4	0.041061297
233	0x3ca7433f	0.020417808
234	0x3c113035	0.008861591
235	0xbcb118fd	-0.02161836
236	0xbd24a672	-0.040197797
237	0xbdd90d78	-0.10598272
238	0xbd160d3c	-0.036633715
239	0x3c4f72ee	0.012661679
240	0xbcb1df46	-0.02171291
241	0x3b38471d	0.0028118559
242	0xbd0d4858	-0.03449282
243	0xbba95cf3	-0.005168551
244	0x3c98adf1	0.01863763
245	0xbe01e7ba	-0.12686053
246	0x3c0d46ea	0.008622864
247	0x3ce17d6d	0.027525628
248	0xbd25c769	-0.040473375
249	0x3c94d00a	0.018165607
250	0xbbc0cc38	-0.00588372
251	0xbc86ef42	-0.016471509
252	0x3c8e1665	0.017344663
253	0xbdcb1648	-0.09916359
254	0xbd6aa731	-0.057288352
255	0xbd564e58	-0.05232081

bert.embeddings.LayerNorm.gamma f4 [768]
0	0x3f6d120c	0.9260566
1	0x3f6296ab	0.8851115
2	0x3f5bab1f	0.85807985
3	0x3f5c97c1	0.8616906
4	0x3f64cade	0.8937205
5	0x3f659bbb	0.8969075
6	0x3f6e005e	0.9296931
7	0x3f69eac1	0.9137383
8	0x3f6fe792	0.93712723
9	0x3f4ef39a	0.80840456
10	0x3f4c96f8	0.7991786
11	0x3f4e9fed	0.8071278
12	0x3f673119	0.9030929
13	0x3f51dd69	0.8197847
14	0x3f68f5cb	0.9100005
15	0x3f596c66	0.8493103
16	0x3f50afce	0.81518257
17	0x3f5c7d84	0.8612902
18	0x3f6a07d3	0.9141819
19	0x3f5d7cc3	0.86518496
20	0x3f6c62e9	0.92338425
21	0x3f5e000e	0.86718833
22	0x3f669a46	0.9007915
23	0x3f5e4fcb	0.86840504
24	0x3f581342	0.84404385
25	0x3f6624f5	0.8990014
26	0x3f4a0512	0.78913987
27	0x3f6d6e5b	0.92746514
28	0x3f59a113	0.85011405
29	0x3f575e25	0.8412803
30	0x3f6afd03	0.91792315
31	0x3f5d3724	0.8641226
32	0x3f6b238b	0.9185111
33	0x3f7737d2	0.9656955
34	0x3f62d86b	0.8861148
35	0x3f5ef78f	0.87096494
36	0x3f6907fe	0.9102782
37	0x3f5fb795	0.873895
38	0x3f69ce1e	0.91330135
39	0x3f6351ee	0.8879689
40	0x3f69bafb	0.91300935
41	0x3f6ff91c	0.93739486
42	0x3f61e167	0.8823456
43	0x3f5cb82f	0.8621854
44	0x3f619471	0.8811713
45	0x3f5eec13	0.8707897
46	0x3f5b6170	0.8569555
47	0x3f71cceb	0.94453305
48	0x3f6a91c2	0.9162866
49	0x3f6f8580	0.9356308
50	0x3f6d2e12	0.9264842
51	0x3f59b65e	0.85043895
52	0x3f6e1383	0.9299852
53	0x3eb07eb4	0.34471667
54	0x3f5d70f5	0.86500484
55	0x3f51da39	0.81973606
56	0x3f5f49f4	0.8722222
57	0x3f5b4a96	0.85660684
58	0x3f64d7e4	0.8939192
59	0x3f4e1bf8	0.80511427
60	0x3f6691d3	0.9006626
61	0x3f592974	0.8482888
62	0x3ec625d6	0.38700742
63	0x3f638c79	0.8888622
64	0x3f64702b	0.89233655
65	0x3f608ced	0.87715036
66	0x3f6572a6	0.89628065
67	0x3f746f81	0.9548264
68	0x3f64f9c0	0.8944359
69	0x3f650324	0.8945792
70	0x3f727499	0.94709164
71	0x3f72eac2	0.9488946
72	0x3f6f53c8	0.93487215
73	0x3f48091f	0.7813892
74	0x3f6cecc5	0.9254878
75	0x3f4b5727	0.7942986
76	0x3f616fad	0.8806103
77	0x3ec57e00	0.38572693
78	0x3f4a3d69	0.78999954
79	0x3f590790	0.84777164
80	0x3f637beb	0.8886096
81	0x3f6be83a	0.92151225
82	0x3f6dddab	0.92916363
83	0x3f662420	0.8989887
84	0x3f476cd0	0.7790041
85	0x3f5356a0	0.82554054
86	0x3f5f2693	0.87168235
87	0x3f60b625	0.8777793
88	0x3f66ed33	0.9020569
89	0x3f6b465f	0.9190425
90	0x3f5c487e	0.86048114
91	0x3f604c35	0.8761628
92	0x3f355a71	0.7084113
93	0x3f5c21a7	0.8598885
94	0x3f65e824	0.89807343
95	0x3f4f2613	0.8091747
96	0x3ecdde2e	0.40208572
97	0x3f4aab27	0.7916741
98	0x3f646b34	0.8922608
99	0x3f696ab2	0.9117843
100	0x3f722378	0.9458537
101	0x3f72eb2b	0.9489009
102	0x3f5fd862	0.8743955
103	0x3f5718b4	0.8402207
104	0x3f4d96c7	0.8030819
105	0x3e95ae26	0.29234427
106	0x3f6e72e3	0.93144053
107	0x3f681044	0.9064982
108	0x3f6299c6	0.8851589
109	0x3f4fbef2	0.81150734
110	0x3f68b483	0.9090044
111	0x3f651402	0.89483654
112	0x3f67029d	0.9023836
113	0x3f6a2688	0.91465044
114	0x3f6640d3	0.89942664
115	0x3f5ef139	0.87086827
116	0x3f668b60	0.9005642
117	0x3f673548	0.90315676
118	0x3f64ff49	0.89452034
119	0x3f66353a	0.8992497
120	0x3f5e0eb6	0.867412
121	0x3e1a9f9c	0.15099949
122	0x3f5ec3ed	0.8701771
123	0x3f62cdff	0.88595575
124	0x3f253026	0.64526594
125	0x3f5afbf8	0.85540724
126	0x3f5d806d	0.8652409
127	0x3f4ad56f	0.79231924
128	0x3f652290	0.89505863
129	0x3f5647f3	0.83703536
130	0x3f69814d	0.9121292
131	0x3f62d213	0.886018
132	0x3ecd5369	0.401027
133	0x3f623110	0.88356113
134	0x3f6570c4	0.8962519
135	0x3f6d316d	0.9265354
136	0x3f6654f3	0.8997337
137	0x3f5572f5	0.83378536
138	0x3f677fdd	0.9042948
139	0x3ed7ae0d	0.42124978
140	0x3f6ad9b1	0.9173842
141	0x3f68ca27	0.9093346
142	0x3f6be211	0.92141825
143	0x3f68ebf2	0.90985024
144	0x3f6b23d8	0.9185157
145	0x3e404130	0.18774867
146	0x3f69f0fc	0.9138334
147	0x3f58b897	0.8465666
148	0x3f57f03f	0.8435096
149	0x3f557e40	0.8339577
150	0x3f4ee191	0.8081294
151	0x3f680a0f	0.9064035
152	0x3f3b588e	0.73182
153	0x3f6258b1	0.8841658
154	0x3f72e922	0.9488698
155	0x3f68db11	0.9095927
156	0x3f69cef9	0.9133144
157	0x3f563bc9	0.83684975
158	0x3f6ad0c3	0.91724795
159	0x3dfe5bfa	0.12419887
160	0x3f68b314	0.9089825
161	0x3f69abb1	0.91277605
162	0x3f5820ce	0.84425056
163	0x3f7ba9bf	0.98305887
164	0x3f6a1f7e	0.91454303
165	0x3f6ae590	0.91756535
166	0x3f5d34d0	0.8640871
167	0x3f579cb8	0.8422351
168	0x3ec4f2d1	0.38466504
169	0x3f651680	0.8948746
170	0x3f702713	0.9380962
171	0x3f64df6c	0.89403415
172	0x3f541705	0.82847625
173	0x3f71a0ce	0.94385993
174	0x3f6e8883	0.9317705
175	0x3df2bf8b	0.1185294
176	0x3f58b042	0.8464395
177	0x3f577fc3	0.84179324
178	0x3f5ece80	0.87033844
179	0x3f5cc2ea	0.86234915
180	0x3f64c1f8	0.8935847
181	0x3f6f5822	0.93493855
182	0x3f5ee402	0.8706666
183	0x3f6e8843	0.9317667
184	0x3f6fa8c7	0.9361691
185	0x3f6aca23	0.91714686
186	0x3f6c4df4	0.9230645
187	0x3f5f30f2	0.8718406
188	0x3f6ee19e	0.93313015
189	0x3f57470c	0.84092784
190	0x3f61a3cd	0.88140565
191	0x3f63f6b5	0.8904832
192	0x3f5f16ee	0.8714436
193	0x3f5bf59b	0.8592164
194	0x3f60a6b9	0.877544
195	0x3f62f4e1	0.88654906
196	0x3f6a2aa6	0.91471326
197	0x3f69d9d2	0.9134799
198	0x3f4c8768	0.79894114
199	0x3f4ee048	0.80810976
200	0x3f5eef69	0.8708406
201	0x3f66c088	0.9013753
202	0x3e8c62e3	0.27419195
203	0x3f5d1f5b	0.8637597
204	0x3f5c645f	0.86090654
205	0x3f55dd30	0.8354063
206	0x3f6a3374	0.9148476
207	0x3f58aaa8	0.846354
208	0x3f700596	0.93758523
209	0x3f5ea771	0.86974245
210	0x3f5af588	0.855309
211	0x3f733b80	0.95012665
212	0x3f5686b5	0.83799297
213	0x3f6850b1	0.90748125
214	0x3f604041	0.87598044
215	0x3e85fe10	0.26170397
216	0x3e016620	0.12636614
217	0x3f68de35	0.9096406
218	0x3f05c9db	0.5226113
219	0x3f5af2d4	0.85526776
220	0x3f6dcf09	0.92894036
221	0x3f62672e	0.8843869
222	0x3f7190ca	0.94361556
223	0x3f607463	0.8767759
224	0x3f523feb	0.8212878
225	0x3eb3af5f	0.35094735
226	0x3f55e1fd	0.83547956
227	0x3f478dc4	0.7795069
228	0x3f6dc3f4	0.92877126
229	0x3f656980	0.89614105
230	0x3f5fc2a9	0.874064
231	0x3f60e3e8	0.8784776
232	0x3f60fea7	0.8788857
233	0x3f6880eb	0.90821713
234	0x3f6a92f4	0.9163048
235	0x3f62870d	0.8848732
236	0x3f5d3891	0.8641444
237	0x3f4d3236	0.8015474
238	0x3f6c827f	0.9238662
239	0x3f4b97b4	0.79528356
240	0x3f568806	0.83801305
241	0x3f63ae60	0.8893795
242	0x3f67894d	0.9044388
243	0x3f5d5647	0.86459774
244	0x3f5768f7	0.8414454
245	0x3ec88572	0.3916431
246	0x3f572b6e	0.84050643
247	0x3f5774d2	0.8416263
248	0x3f5bf892	0.85926163
249	0x3ef90ea1	0.48643973
250	0x3f64289e	0.89124477
251	0x3f612c2b	0.8795802
252	0x3f5fb67e	0.87387836
253	0x3f5ca51b	0.8618943
254	0x3f68fff6	0.91015565
255	0x3f5c62cb	0.86088246

bert.embeddings.position_embeddings.weight f4 [512, 768]
0	0x3c8f6773	0.017505383
1	0xbcd1f81f	-0.025631009
2	0xbd161577	-0.036641564
3	0xbccf24dc	-0.02528613
4	0x3c029894	0.007970948
5	0xbca6c60f	-0.020358114
6	0xbb769e7c	-0.0037631085
7	0xbb999d7f	-0.0046879645
8	0x3bcbfd3c	0.0062252562
9	0xbd1d0cca	-0.038342275
10	0x3c56ac13	0.013102549
11	0xbb7306fc	-0.003708302
12	0xbcac2486	-0.02101351
13	0x3c3e7ba5	0.011626159
14	0xbd21fae5	-0.039545912
15	0x3c265f8c	0.010154616
16	0x3aecfeae	0.0018081272
17	0xbb8279bb	-0.0039817966
18	0x3c83fe23	0.016112393
19	0xbc9e53cd	-0.019327069
20	0xbd01c74e	-0.031684212
21	0xbcd0bf28	-0.025481775
22	0x39ab0694	0.00032620563
23	0x3ca698e6	0.02033658
24	0xbc88d837	-0.016704662
25	0xbcac074a	-0.02099957
26	0xbbfffde2	-0.0078122476
27	0x3c802de3	0.01564688
28	0xbbcfcaa2	-0.0063412944
29	0x3bb52d17	0.005529057
30	0xbc7f6c4e	-0.015589787
31	0x3b86bc76	0.0041118218
32	0xbc94c397	-0.01815967
33	0x3b0f4e8c	0.0021866886
34	0x3beb3720	0.0071782023
35	0xbc7c0758	-0.01538261
36	0xbb5508d6	-0.0032506487
37	0x3c82b125	0.01595361
38	0x3c95cf00	0.018287182
39	0x3d13b51c	0.03606139
40	0xbb805091	-0.0039158543
41	0x3b896863	0.004193352
42	0xbc1cf7fd	-0.009580609
43	0xbba4fe71	-0.0050352146
44	0xbb91f8bf	-0.0044547017
45	0x3b07d9bd	0.0020729147
46	0xbea5f755	-0.32415262
47	0x3b62207e	0.003450423
48	0x3d403845	0.046928663
49	0xbcac7eb3	-0.021056509
50	0x3d662717	0.056189623
51	0x3cc159a2	0.02360231
52	0xbcbfa3e4	-0.023393579
53	0x3e5712f7	0.21003328
54	0x3d085e92	0.033293314
55	0xbbe63bf0	-0.007026188
56	0xbc1a7c63	-0.00942907
57	0xb9b2ce97	-0.00034104727
58	0x3cc687ce	0.024234679
59	0xbcbbe3e1	-0.02293581
60	0x3c555fb9	0.01302331
61	0x3be3b8da	0.0069495263
62	0xbe009a4c	-0.1255886
63	0xbc094670	-0.00837861
64	0x3a354b02	0.0006915779
65	0xbc1ec5f6	-0.009690752
66	0x3c349473	0.011021721
67	0xbc84faef	-0.016232936
68	0x3b966075	0.0045891353
69	0x3c906087	0.017624153
70	0x3ad70dbb	0.001640729
71	0xbb3bb671	-0.002864268
72	0x3af9af1a	0.0019049377
73	0xbb53a710	-0.0032295622
74	0xbc950b04	-0.01819373
75	0xbcb349bd	-0.021885747
76	0xbc802fbd	-0.015647763
77	0x3cd267ec	0.02568432
78	0xbba3a17f	-0.004993617
79	0x3cc104ba	0.023561824
80	0xbc96b01b	-0.01839452
81	0xbc1e7639	-0.009671741
82	0x3cd02942	0.025410298
83	0xb84c841d	-4.876043e-05
84	0xbc1059c2	-0.008810462
85	0x3c1c1db0	0.009528562
86	0x3acfb2fc	0.0015846188
87	0x3c4f08e3	0.012636396
88	0x3b224b19	0.0024764
89	0xbaa4b3f5	-0.0012565838
90	0x3c06a658	0.00821837
91	0x3c14c692	0.009080546
92	0xbaac0e81	-0.0013126881
93	0x3c326d3c	0.010890301
94	0x3bafb7e1	0.0053624962
95	0xbc9d0e43	-0.01917184
96	0x3d65f0df	0.056137916
97	0xbca0c510	-0.019625217
98	0x3c3501b1	0.011047767
99	0xbc091bb4	-0.008368421
100	0x3d140078	0.03613326
101	0x3aa7ac97	0.0012792525
102	0x3cc4a673	0.02400515
103	0xbc83013f	-0.015991805
104	0x3c0c4c1d	0.008563069
105	0x3dbae5d3	0.09125867
106	0x3b3950c1	0.0028276893
107	0x3c5ce6e4	0.013482783
108	0x3acaae62	0.0015463347
109	0x3ba03ec6	0.0048902957
110	0x3cfe1e83	0.031020408
111	0x3c744d71	0.014911042
112	0x39e4cb66	0.00043639092
113	0xbc888aa0	-0.016667664
114	0x3cf9ff03	0.030517107
115	0xbc319487	-0.010838634
116	0xbc3f091a	-0.011659885
117	0x3c2a7a4e	0.010405136
118	0x3c4fda75	0.012686362
119	0xbb5e2fb8	-0.0033902954
120	0xbca2b691	-0.019862445
121	0x3f26e19a	0.6518799
122	0x3c1d99cf	0.00961919
123	0xbd07d140	-0.03315854
124	0x3c7bd28c	0.0153700225
125	0xbbb63e77	-0.0055616456
126	0x3bdd89bd	0.0067608044
127	0x3c6d6e33	0.014491606
128	0x3b1e6835	0.0024171
129	0xbb875e6b	-0.0041311285
130	0x3c07a667	0.0082794195
131	0x3c09cce0	0.008410662
132	0x3be6bef0	0.0070418045
133	0xbacb77c7	-0.0015523367
134	0x3b3b7948	0.0028606225
135	0x3c59daad	0.013296765
136	0x3c26b9d2	0.010176139
137	0x3c82366b	0.01589509
138	0xbc164240	-0.009171069
139	0x3f3a159c	0.72689223
140	0x3ca14735	0.019687274
141	0x3bb9c84b	0.0056696287
142	0xbd334382	-0.043765552
143	0x3d393c1c	0.04522334
144	0xbc43a319	-0.011940741
145	0xbf68a3ea	-0.90875113
146	0x3c0eafe8	0.0087089315
147	0x3b83d6d5	0.0040234127
148	0x3b7168e2	0.0036836197
149	0xbbcd8f0a	-0.006273155
150	0xbcd4329c	-0.025903039
151	0x3cc06622	0.0234862
152	0xbaba4c4e	-0.0014213414
153	0xbc6afe33	-0.014342832
154	0xbc72c777	-0.014818064
155	0x3b9644a9	0.0045858216
156	0x3c2f7119	0.010708117
157	0xbbd87d61	-0.006606743
158	0x3bcdeaa5	0.0062840753
159	0xbed80f05	-0.4219896
160	0x3c49e683	0.012323025
161	0xbc4180a6	-0.011810457
162	0x3aa7addc	0.0012792903
163	0xbbe63ac7	-0.00702605
164	0xbaf6d609	-0.0018832098
165	0x3ca87443	0.02056325
166	0xbb2d961d	-0.002648718
167	0x3cb4c7b4	0.022067882
168	0x3ea10865	0.31451717
169	0xbc71e3a0	-0.014763743
170	0xbb658df6	-0.0035027242
171	0x3c5ba9d1	0.013407187
172	0x3bb0d918	0.0053969733
173	0xbca3310e	-0.019920852
174	0x3ae8cded	0.0017761566
175	0x3ec5d5c0	0.3863964
176	0xba9fc4dd	-0.0012189407
177	0x3b1055e0	0.0022023842
178	0x3b29b0f4	0.0025892826
179	0x3ba1ca6f	0.004937462
180	0x3abc9ef7	0.0014390637
181	0x3ca85f05	0.020553121
182	0xbbed2d91	-0.007238098
183	0x3bed6b21	0.007245437
184	0xbc947e00	-0.018126488
185	0xbba73d3d	-0.0051037357
186	0x3a546842	0.0008102694
187	0xbca7894e	-0.020451214
188	0xbbe60ace	-0.007020331
189	0x3c31ed16	0.010859748
190	0x3beb6f80	0.0071849227
191	0x3c974d29	0.01846941
192	0xbd388157	-0.045045223
193	0xbc6a316f	-0.014294012
194	0x3c0469ae	0.008081837
195	0x3bbd8580	0.0057837367
196	0xba77a707	-0.0009447191
197	0x3bdfb444	0.0068269093
198	0xbca66ff0	-0.020317048
199	0xbb2b38fc	-0.0026126495
200	0xbd0bba6e	-0.03411334
201	0x3bb81222	0.005617396
202	0x3d771e65	0.06033172
203	0xbcaebd7f	-0.021330593
204	0x3ca011c4	0.019539721
205	0x3c86a56c	0.016436301
206	0xba80942e	-0.0009809786
207	0xbbbe8e24	-0.0058152843
208	0xbb06eff6	-0.0020589805
209	0x3c2cd7dc	0.010549512
210	0x3be0efe3	0.006864534
211	0xbc239567	-0.009984351
212	0x3cc2ba3f	0.02377045
213	0xbc02249e	-0.0079433005
214	0xbc57e9cb	-0.013178299
215	0xbe6ad81e	-0.22934005
216	0x3dada68a	0.084790304
217	0x3cd17cf4	0.025572278
218	0x3d109e0a	0.035306968
219	0x3bad1c05	0.005282881
220	0x3c73169d	0.014836934
221	0x3cb40ef9	0.021979796
222	0xbc889ed8	-0.016677305
223	0x3c562990	0.013071433
224	0x3c080826	0.008302724
225	0x3e520d40	0.20512867
226	0x3ce1939a	0.027536202
227	0x3b1a3faa	0.0023536482
228	0xbb376941	-0.002798632
229	0xbd090006	-0.033447288
230	0x3c50a303	0.0127341775
231	0x3c8bb17e	0.017052408
232	0x3afd9b27	0.0019348607
233	0x3c7bad04	0.015361074
234	0x3aa43f00	0.0012530982
235	0x3c7f0f4c	0.015567612
236	0x3bbbf289	0.0057356996
237	0x3c6f8e60	0.014621347
238	0xbb95b5df	-0.0045688
239	0x3c2555e3	0.010091278
240	0x3b574ae1	0.0032851028
241	0xbcd3ae4f	-0.025839953
242	0x3c254a91	0.010088579
243	0x3c0e8735	0.008699228
244	0xbc40feb2	-0.011779474
245	0x3c836c9b	0.016042998
246	0x3ca7346a	0.020410735
247	0xbc8652ba	-0.016396869
248	0xbb0b8ff0	-0.002129551
249	0x3c1f3bca	0.009718845
250	0xbb2eb654	-0.002665897
251	0xbd35e013	-0.044403147
252	0x3c248fc1	0.010044039
253	0x3c521dbb	0.012824471
254	0x3cbce5da	0.02305882
255	0xba7ca218	-0.0009637191
